cifar_net.pth (torch, 251604 bytes, 10 tensors)

conv1.weight f4 [6, 3, 5, 5]
-0.19331506 -0.26597416 -0.16635017 -0.22392361 -0.060897816 0.040305074 0.06288626 0.089147
0.06002639 0.18885164 0.14943615 0.14751466 0.18321411 0.1966127 0.059370324 0.119841576
0.2328785 0.16398682 0.22528829 0.15754008 0.21667714 0.23171274 0.14547136 0.024401587
0.13503377 -0.008328561 -0.11654633 -0.20905995 -0.0035165558 -0.1122248 -0.11845295 -0.0977985
-0.008864046 -0.02665616 -0.088159926 -0.07107053 -0.024776252 0.036470857 -0.14479774 -0.12060798
0.00055482716 -0.03003626 -0.005100789 -0.19330965 -0.15600364 -0.106573604 -0.12149448 -0.08496187
-0.166988 -0.19364743 0.1511286 0.13980997 0.07539849 -0.03012758 0.04700127 0.024013309
0.15447642 0.1526589 0.20481153 -0.020110374 0.013730613 0.19337179 0.04003098 0.16912687
0.025003916 0.11046945 0.042231206 0.08633506 0.10603738 -0.02966688 0.06595333 -0.010144162
-0.03861183 0.043516427 -0.14056522 0.14231876 0.30647048 0.21258578 0.3595937 0.24861689
0.258073 0.41611406 0.5100685 0.55436593 0.5102152 -0.10663039 -0.34985623 -0.34820879
-0.18047816 -0.02936027 -0.32810077 -0.36796287 -0.35688454 -0.1691915 -0.12856328 -0.09307525
-0.08192655 -0.12735689 -0.16590178 -0.124482065 -0.09412534 0.092796616 0.0681719 0.041438356
-0.1727609 0.06821259 0.34589437 0.2502 0.20146805 0.16070262 -0.36188948 -0.37815717
-0.5219473 -0.41342866 -0.2590392 -0.22036679 -0.26126537 -0.19093023 -0.305876 -0.18042497
0.1980402 0.22084612 0.33489373 0.03518244 0.08289806 -0.05010692 0.006554458 0.11386591
-0.10520321 -0.18295093 0.03389164 0.19182375 0.23392102 0.13190961 0.17440957 -0.22310464
-0.27508417 -0.46397835 -0.22973634 -0.121979006 0.02418778 0.05765929 -0.026833465 0.016703097
0.03063971 0.3363688 0.39013773 0.4052213 0.28119686 0.012194627 -0.0052785273 -0.15085039
-0.1509985 -0.17036873 -0.1407155 -0.12395914 -0.107327305 -0.06234943 -0.25184128 -0.11201197
-0.22506548 -0.20732549 -0.1798918 -0.15688089 -0.2865798 -0.061123732 -0.15680969 -0.17068957
-0.21075095 -0.15099968 -0.0030156395 -0.041560728 -0.16021502 -0.105359465 -0.0410004 -0.019789401
-0.008266221 -0.14021467 0.028533218 -0.13005541 -0.009372919 0.12376134 -0.032193765 0.058011428
-0.013453078 0.044146728 -0.008704794 0.0037480025 -0.05357312 -0.058316 -0.08081558 0.09630369
0.01994012 0.0022942512 -0.0073222136 -0.10886016 -0.20361912 -0.0740701 -0.057322007 -0.16627537
0.045948673 0.22119263 0.24002758 0.08034488 -0.03174831 0.29290256 0.31084624 0.3383062
0.3027544 0.19361997 0.24840109 0.35555688 0.18331736 0.26147956 0.12539959 0.11495065
0.29595885 0.29638705 0.059878457 -0.009003705 -0.017447714 0.06631206 0.11486868 -0.010324936
0.028431745 -0.04808208 0.042396687 0.09282643 0.10834263 0.010246185 -0.14551733 -0.13171516
-0.037910417 0.0022630545 0.071721405 -0.029968899 -0.040122353 -0.0016083354 0.06085791 -0.099112704
-0.06250438 -0.05928309 -0.06915297 -3.7100825e-05 0.03369315 0.07724906 -0.035268035 0.013751027
0.10709749 0.086153686 0.10642781 -0.005213649 0.14543822 -0.040108696 0.021570433 -0.033755094
00000000: 62f4 45be c42d 88be b357 2abe 3b4c 65be
00000010: fd6f 79bd ef16 253d 83ca 803d b492 b63d
00000020: 3bde 753d 5362 413e ca05 193e 150e 173e
00000030: 7b9c 3b3e d754 493e 4c2e 733d 806f f53d
00000040: b477 6e3e 29ec 273e f9b1 663e 3052 213e
00000050: 9de0 5d3e 1b46 6d3e 72f6 143e d6e5 c73c
00000060: 4b46 0a3e 8474 08bc d8af eebd d013 56be
00000070: 0476 66bb 1ed6 e5bd 7697 f2bd 944a c8bd
00000080: 813a 11bc 055e dabc 318d b4bd 6d8d 91bd
00000090: 91f7 cabc 7762 153d dc45 14be 5101 f7bd
000000a0: d271 113a 9a0e f6bc 8524 a7bb f7f2 45be
000000b0: 6bbf 1fbe 4343 dabd 19d2 f8bd 7d00 aebd
000000c0: e7fe 2abe 834b 46be 75c1 1a3e 582a 0f3e
000000d0: 866a 9a3d 1dce f6bc 6784 403d 8fb7 c43c
000000e0: 112f 1e3e 9d52 1c3e 1dba 513e 83be a4bc
000000f0: 5df6 603c 4103 463e 86f7 233d 982f 2d3e
00000100: 03d5 cc3c cf3d e23d a1fa 2c3d 70d0 b03d
00000110: 202a d93d f507 f3bc 8a12 873d b333 26bc
00000120: 7027 1ebd 483e 323d 54f0 0fbe 02bc 113e
00000130: b3e9 9c3e 16b0 593e aa1c b83e 6d95 7e3e
00000140: 2522 843e e70c d53e d993 023f edea 0d3f
00000150: 779d 023f 0961 dabd 5b20 b3be 6c48 b2be
00000160: 44cf 38be f384 f0bc d3fc a7be a165 bcbe
00000170: 92b9 b6be 8940 2dbe 18a6 03be 3d9e bebd
00000180: 1bc9 a7bd d869 02be 28e2 29be 74f0 febd
00000190: c9c4 c0bd 270c be3d b69d 8b3d 44bb 293d
000001a0: 3ce8 30be 0bb3 8b3d 1119 b13e 371a 803e
000001b0: a44d 4e3e 3a8f 243e 9449 b9be d19d c1be
000001c0: 579e 05bf ecac d3be c9a0 84be d5a7 61be
000001d0: 93c4 85be 3783 43be c79b 9cbe 53c1 38be
000001e0: 0dcb 4a3e 7c25 623e 3177 ab3e 761b 103d
000001f0: 75c6 a93d ea3c 4dbd c7c6 d63b 8832 e93d
00000200: c874 d7bd 7d57 3bbe f6d1 0a3d 726d 443e
00000210: fe88 6f3e 5013 073e 6c98 323e 8b75 64be
00000220: d5d7 8cbe 928e edbe 0140 6bbe 21d0 f9bd
00000230: 7425 c63c 262c 6c3d dbd1 dbbc efd4 883c
00000240: 2100 fb3c 8838 ac3e 22c0 c73e 2b79 cf3e
00000250: 09f9 8f3e f9cb 473c 7ff7 acbb 8678 1abe
00000260: 5a9f 1abe 2475 2ebe b917 10be 4ade fdbd
00000270: 6bce dbbd 1e62 7fbd 57f1 80be 8866 e5bd
00000280: 9177 66be 224d 54be 8e35 38be 62a5 20be
00000290: 96ba 92be e15c 7abd b892 20be 3fc9 2ebe
000002a0: 19cf 57be a99f 1abe 09a2 45bb 953b 2abd
000002b0: 680f 24be b4c6 d7bd 09f0 27bd 621d a2bc
000002c0: 0b6f 07bc 6f94 0fbe 7fbe e93c 3f2d 05be
000002d0: df90 19bc 9676 fd3d 9cdd 03bd 649d 6d3d
000002e0: 4d6a 5cbc 33d3 343d 8d9e 0ebc 0ca1 753b
000002f0: 7d6f 5bbd c2dc 6ebd a482 a5bd de3a c53d
00000300: 7659 a33c 265b 163b 2eef efbb 13f2 debd
00000310: 8881 50be 11b2 97bd 7bca 6abd 1744 2abe
00000320: ad34 3c3d 5280 623e cac9 753e db8b a43d
00000330: 840a 02bd 53f7 953e 3d27 9f3e 7836 ad3e
00000340: a002 9b3e 5044 463e db5c 7e3e 8d0b b63e
00000350: 8cb7 3b3e a6e0 853e c068 003e 3f6b eb3d
00000360: eb87 973e 0bc0 973e 1d43 753d 4784 13bc
00000370: 82ee 8ebc 9ece 873d 4540 eb3d ec29 29bc
00000380: b1e9 e83c b7f1 44bd 26a8 2d3d c91b be3d
00000390: bee2 dd3d 9ddf 273c 7f02 15be 57e0 06be
000003a0: f447 1bbd c14f 143b ace2 923d 5681 f5bc
000003b0: 5657 24bd c8ce d2ba 2546 793d 9afb cabd
000003c0: 4c02 80bd d3d2 72bd 13a0 8dbd b59c 1bb8
000003d0: d401 0a3d c134 9e3d 3775 10bd fd4b 613c
000003e0: ee55 db3d 5871 b03d d3f6 d93d 42d7 aabb
000003f0: c2ed 143e 0449 24bd 7ab4 b03c c842 0abd

conv1.bias f4 [6]
0.27725562 -0.49252227 0.41783172 -0.1254326 -0.32957518 -0.12096556
00000000: 73f4 8d3e e12b fcbe 0aee d53e 6771 00be
00000010: 14be a8be cbbc f7bd

conv2.weight f4 [16, 6, 5, 5]
-0.26906306 -0.06407282 0.03750078 0.21729629 0.15216343 -0.26238224 -0.15097028 0.103071295
0.22402205 0.14021857 -0.18340525 -0.097858034 -0.0073438413 0.12876153 0.20127647 -0.094465315
-0.116516344 -0.1209499 0.04750658 0.12988834 -0.14618748 -0.038301542 0.032825746 -0.011066668
0.1597446 0.18199182 0.09984581 0.010160673 -0.121491596 -0.10832026 0.12077636 0.0077366373
-0.0023954087 -0.077813566 -0.08846958 -0.05988734 -0.03920736 0.052709896 -0.014765093 -0.0817352
-0.12760828 -0.028941305 -0.14565805 -0.024847109 -0.029289652 -0.06426849 -0.11857119 -0.10345692
-0.04730518 -0.0052729785 -0.28872266 -0.20104463 -0.13786243 0.040299416 0.2163958 -0.30077818
-0.32652333 -0.06784881 0.14816639 0.34260896 -0.2617181 -0.23202519 -0.08891565 0.17313555
0.31666517 -0.19372658 -0.23069957 -0.12604688 0.17555387 0.25994754 -0.04958 -0.16525634
-0.016540062 0.026837913 0.26971257 -0.13215578 -0.064558536 -0.059507135 0.013417652 0.16031176
-0.16322303 -0.022259291 0.025527405 0.02451387 0.08558675 -0.10718681 -0.07368132 -0.047827266
0.045782797 0.21241999 -0.13644397 -0.038646977 -0.110919595 0.075147174 0.15661982 -0.10070947
-0.055891264 -0.0893141 0.079530716 0.09121837 0.07212419 0.07012097 -0.032269515 -0.1593444
-0.21360454 0.14677113 0.10859453 -0.008803645 -0.17699508 -0.27594474 0.16408297 0.10228281
0.04631965 -0.06467147 -0.13726513 0.05360269 0.009173501 0.037062928 0.06691436 -0.18674444
0.07554329 0.044417087 0.14280804 0.07131528 -0.16005455 -0.19966938 -0.13916595 -0.05085731
0.07749523 0.03985109 -0.21189648 -0.21540537 -0.07544705 0.07280405 0.018008702 -0.11811356
-0.17812937 -0.00028941367 -0.04059308 0.05680117 -0.13674353 -0.056340694 -0.059966847 -0.08839464
0.04200204 -0.062182162 0.047632057 0.08919629 0.12680352 0.0028510478 0.10502142 0.04637417
0.04821873 -0.085147984 -0.14447613 0.09584416 -0.008433474 -0.041192017 -0.18414801 -0.16289186
0.052142527 -0.07139084 -0.0803269 -0.103615135 -0.11968505 0.21245953 0.046471078 0.010111741
-0.0072201956 -0.16643445 0.23687337 0.1254436 0.12151921 0.12413506 0.083909854 0.1218064
0.07749061 0.022735992 0.01860652 0.011029666 -0.06442884 0.03783474 -0.005040309 0.049108483
0.008475224 0.021788143 0.082142055 0.088740714 -0.07746115 -0.0900689 -0.011250913 0.009641056
0.008041986 0.003066919 -0.15698409 -0.032368463 0.013704893 -0.024029443 -0.04347182 -0.16784741
-0.12161262 -0.0018012003 0.043398526 -0.04812572 -0.08176365 -0.082794644 0.04352247 0.103241615
0.07760336 -0.015169073 -0.034673568 0.05587646 0.10636747 0.0679266 0.18160519 -0.077841766
-0.036127392 0.014443615 0.0009167379 0.10660345 -0.20637167 -0.18219991 -0.045108266 0.030732753
-0.034150835 0.08365178 0.09170677 0.039294757 0.017572403 -0.064185955 -0.008361 0.07290182
-0.05297847 -0.09933027 -0.10428355 -0.019545069 0.05887497 -0.0007805461 0.0041945702 -0.021664731
-0.0044707856 -0.065654114 0.026271349 -0.028952613 -0.10515957 0.08868225 0.027563578 -0.016745884
0.013795254 -0.07282591 -0.004062605 0.249587 0.02861026 0.16250126 0.23315226 -0.053504743
00000000: a2c2 89be 9c38 83bd 6b9a 193d eb82 5e3e
00000010: bbd0 1b3e f756 86be f497 1abe 0b17 d33d
00000020: 0966 653e 7595 0f3e 96ce 3bbe cb69 c8bd
00000030: 9ba4 f0bb 10da 033e 6b1b 4e3e 0877 c1bd
00000040: 1fa0 eebd 95b4 f7bd 4296 423d 7301 053e
00000050: 2cb2 15be 14e2 1cbd 4a74 063d f850 35bc
00000060: 1794 233e 105c 3a3e f67b cc3d f478 263c
00000070: 96d0 f8bd 03d7 ddbd 9959 f73d 9e83 fd3b
00000080: 4afc 1cbb b85c 9fbd 8a2f b5bd 6d4c 75bd
00000090: e697 20bd 55e6 573d 4ae9 71bc c964 a7bd
000000a0: bfab 02be 5116 edbc 6227 15be 2a8c cbbc
000000b0: daf0 efbc 339f 83bd 74d5 f2bd 39e1 d3bd
000000c0: 14c3 41bd f3c8 acbb 75d3 93be a5de 4dbe
000000d0: cf2b 0dbe 0011 253d dc96 5d3e 99ff 99be
000000e0: 112e a7be 51f4 8abd eeb8 173e 716a af3e
000000f0: eaff 85be 0398 6dbe 6919 b6bd 724a 313e
00000100: f021 a23e 4360 46be 823c 6cbe 6f12 01be
00000110: 65c4 333e d817 853e 6614 4bbd f538 29be
00000120: 067f 87bc 2fdb db3c c417 8a3e d853 07be
00000130: 4437 84bd c1bd 73bd b6d5 5b3c c428 243e
00000140: f023 27be 1e59 b6bc d91e d13c 50d1 c83c
00000150: 1b48 af3d c284 dbbd 3be6 96bd 86e6 43bd
00000160: be86 3b3d a084 593e f8b7 0bbe 4b4c 1ebd
00000170: d029 e3bd c3e6 993d f260 203e c440 cebd
00000180: 3dee 64bd 50ea b6bd 00e1 a23d b2d0 ba3d
00000190: d9b5 933d 959b 8f3d 0a2d 04bd 2e2b 23be
000001a0: 26bb 5abe 2c4b 163e cf66 de3d 2a3d 10bc
000001b0: 333e 35be a148 8dbe 5e05 283e a679 d13d
000001c0: acb9 3d3d 7a72 84bd 3b8f 0cbe 7f8e 5b3d
000001d0: 744c 163c 4ccf 173d 650a 893d ef39 3fbe
000001e0: 71b6 9a3d b1ee 353d 453c 123e bf0d 923d
000001f0: 57e5 23be 2176 4cbe 8581 0ebe c14f 50bd
00000200: d2b5 9e3d e63a 233d 64fb 58be 3a93 5cbe
00000210: fc83 9abd 4a1a 953d fc86 933c 86e5 f1bd
00000220: 8c67 36be 72bc 97b9 ee44 26bd 58a8 683d
00000230: 7f06 0cbe 80c5 66bd cc9f 75bd 4008 b5bd
00000240: 550a 2c3d b9b2 7ebd d519 433d 8bac b63d
00000250: c8d8 013e a5d8 3a3b 7815 d73d d7f2 3d3d
00000260: 0181 453d 1162 aebd 8df1 13be f149 c43d
00000270: 8e2c 0abc f6b8 28bd 4c91 3cbe 20cd 26be
00000280: 6793 553d 5c35 92bd 6e82 a4bd 2c34 d4bd
00000290: 6f1d f5bd fe8e 593e 7558 3e3d b7ab 253c
000002a0: 6497 ecbb cb6d 2abe ef8e 723e 4974 003e
000002b0: 10df f83d 863a fe3d eed8 ab3d a275 f93d
000002c0: 66b3 9e3d d540 ba3c b36c 983c c6b5 343c
000002d0: 45f3 83bd 9af8 1a3d 2d29 a5bb fa25 493d
000002e0: aadb 0a3c 0c7d b23c 183a a83d b1bd b53d
000002f0: f4a3 9ebd 0b76 b8bd c055 38bc 85f5 1d3c
00000300: 89c2 033c 5dfe 483b 70c0 20be cb94 04bd
00000310: 7d8a 603c 65d9 c4bc 820f 32bd 31e0 2bbe
00000320: 0a10 f9bd 4116 ecba a7c2 313d 7a1f 45bd
00000330: b373 a7bd 3d90 a9bd 9e44 323d 5770 d33d
00000340: 83ee 9e3d b487 78bc df05 0ebd b7de 643d
00000350: 30d7 d93d 1a1d 8b3d b6f6 393e 816b 9fbd
00000360: 51fa 13bd eaa4 6c3c 3d51 703a e952 da3d
00000370: 1853 53be 9d92 3abe 72c3 38bd 41c3 fb3c
00000380: bfe1 0bbd a051 ab3d c2d0 bb3d 8af3 203d
00000390: 00f4 8f3c ed73 83bd 93fc 08bc 8d4d 953d
000003a0: f4ff 58bd ab6d cbbd 9d92 d5bd fb1c a0bc
000003b0: e126 713d 909d 4cba 9b72 893b 3c7a b1bc
000003c0: ab7f 92bb aa75 86bd 0337 d73c 082e edbc
000003d0: e75d d7bd 0a9f b53d 03cd e13c aa2e 89bc
000003e0: 7d05 623c c025 95bd 9a1f 85bb bc93 7f3e
000003f0: 1060 ea3c bb66 263e 77bf 6e3e ca27 5bbd

conv2.bias f4 [16]
-0.03833051 -0.65780157 -0.28947648 0.6831094 0.21279539 0.54340976 0.19514842 -0.19864725
-0.633587 0.19739158 0.4071116 -0.3796291 1.1535456 -0.2752029 -0.21342519 0.060635943
00000000: 7400 1dbd af65 28bf 4336 94be 42e0 2e3f
00000010: 09e7 593e e71c 0b3f fdd4 473e 2f6a 4bbe
00000020: c232 22bf 0521 4a3e ee70 d03e bf5e c2be
00000030: 62a7 933f 65e7 8cbe 228c 5abe 655d 783d

fc1.weight f4 [120, 400]
0.07603485 0.044169985 0.06137059 0.063504644 0.019074319 0.017807953 -0.012476275 -0.013517251
-0.034473978 -0.04508909 -0.026267257 -0.051741656 0.08383852 -0.007545495 -0.03284559 0.02950606
-0.0014170982 0.046909336 0.010209244 0.07833385 0.004700059 0.08574413 -0.020198753 0.06287397
0.011043851 0.024704678 0.011756336 0.029363774 0.03968282 0.055305295 0.0796359 0.04183644
0.08080437 0.052191872 0.010405016 -0.026139466 0.031537544 -0.01434028 -0.035926472 0.051727902
0.011025848 0.018149095 -0.031761378 -0.081026316 -0.028942589 -0.06451785 0.021258198 -0.037086364
-0.012730212 0.007085386 0.08985497 0.07927051 0.05453548 0.01312964 -0.0030651551 0.061583295
0.1910752 0.13246241 0.06587247 0.033868916 0.010372838 0.008850344 0.108441874 -0.023233017
-0.041726 -0.04154847 -0.0058861417 -0.004162554 0.059962466 -0.058560144 -0.038242683 -0.060929034
0.04962869 -0.056851722 -0.1477368 -0.034258917 -0.06016332 0.032098178 -0.015793258 -0.026285239
0.04073161 -0.040147595 -0.060876425 0.018579846 -0.041153837 0.06336149 0.0117382575 -0.067077264
0.022402396 0.023890195 0.016498081 -0.039467156 -0.027206223 0.035607155 0.06163847 0.03811296
0.02403257 -0.007345298 0.06268042 0.042196423 0.042457405 0.015700411 -0.0032089823 0.06494995
0.03250878 0.048493817 0.077843115 0.13717397 0.072019465 -0.015520218 0.04050127 0.0027461695
0.044833265 0.0010758716 -0.06357028 -0.069518134 -0.060552564 0.05975918 0.04323512 -0.042813715
-0.0013795077 0.018023917 0.00545342 0.012328705 -0.07310089 0.029866913 0.06558597 0.08712791
-0.04457794 0.058882486 -0.057168778 -0.07345565 -0.0022991698 0.0058989567 0.08778908 -0.060103096
-0.029669797 0.046869162 0.05071563 0.033141773 -0.013859957 -0.052639864 -0.02245748 -0.023568356
0.01541865 0.016024034 0.030366845 0.013662423 0.02057343 0.07426874 -0.123998836 -0.028170168
0.01873788 -0.028565751 -0.08297747 -0.05767608 -0.015154078 0.067401886 0.0038762202 -0.017892707
0.018400034 0.05069887 0.057194464 0.009653908 -0.005658875 0.03757546 0.035039112 0.02390717
0.030209485 0.07226286 0.120206796 0.1358595 0.0821934 0.041690275 0.07747903 0.11954356
0.060364906 0.013669851 0.034612622 0.02819853 0.11191813 0.025641497 -0.025319038 0.028385544
0.021686228 0.057581972 0.027656635 0.0005362579 -0.012086327 -0.017668562 0.06289047 -0.012467215
0.03627081 0.035946056 -0.028582264 -0.020634986 0.027939688 0.039677117 -0.011538736 0.0023047214
-0.06545836 -0.05520009 -0.03024635 -0.078178965 -0.06944529 -0.016870221 0.0078919465 0.04967342
0.059274364 -0.039270863 -0.073926955 0.0028213374 0.003600363 -0.033115596 0.015462419 -0.06387923
0.03861855 0.0026282466 -0.004576479 -0.09281015 0.003040863 0.024437848 0.023726955 -0.03279678
-0.07482966 -0.091959685 -0.046034083 -0.13485727 -0.13384756 -0.14698978 -0.09478946 -0.055241074
-0.040745426 -0.101018295 -0.041953597 -0.026825726 0.024931936 0.036349107 -0.011345703 0.007427172
-0.06122913 -0.07627696 0.010586705 -0.03364128 -0.08125177 -0.035282075 0.0126241 -0.020737907
-0.037582457 -0.062771484 -0.025499828 -0.028131273 -0.07482542 -0.032847654 -0.11111493 0.025254257
00000000: 29b8 9b3d 96eb 343d ba5f 7b3d b90e 823d
00000010: bf41 9c3c fce1 913c 4a69 4cbc 7677 5dbc
00000020: 9634 0dbd 56af 38bd 6e2e d7bc 0fef 53bd
00000030: 88b3 ab3d 3340 f7bb 1989 06bd b1b6 f13c
00000040: edbd b9ba 0124 403d ac44 273c 7f6d a03d
00000050: f402 9a3b 9e9a af3d db77 a5bc 11c4 803d
00000060: 45f1 343c 7761 ca3c a69d 403c 4c8c f03c
00000070: 748a 223d ce87 623d 2618 a33d b05c 2b3d
00000080: c37c a53d 25c7 553d cd79 2a3c 6f22 d6bc
00000090: 832d 013d 7ef3 6abc a327 13bd a3e0 533d
000000a0: c2a5 343c 69ad 943c 3818 02bd 20f1 a5bd
000000b0: 0219 edbc ef21 84bd ac25 ae3c dfe7 17bd
000000c0: 6192 50bc 872c e83b e205 b83d 9458 a23d
000000d0: 9860 5f3d b41d 573c c5e0 48bb c43e 7c3d
000000e0: 38a9 433e 3aa4 073e 25e8 863d 22ba 0a3d
000000f0: d6f2 293c 0901 113c c616 de3d 2b53 bebc
00000100: e2e8 2abd ba2e 2abd 89e0 c0bb 0966 88bb
00000110: 349b 753d c3dc 6fbd 5ca4 1cbd b990 79bd
00000120: 7447 4b3d 5add 68bd 5148 17be 1453 0cbd
00000130: d06d 76bd 6179 033d dd60 81bc 2454 d7bc
00000140: 30d6 263d ce71 24bd 8f59 79bd c334 983c
00000150: ed90 28bd abc3 813d d251 403c ce5f 89bd
00000160: 3b85 b73c 5fb5 c33c fc26 873c 50a8 21bd
00000170: 96df debc cfd8 113d 9f78 7c3d 561c 1c3d
00000180: f4df c43c d3b0 f0bb 985e 803d 28d6 2c3d
00000190: d1e7 2d3d 269e 803c ca4d 52bb 7b04 853d
000001a0: ed27 053d 74a1 463d 366c 9f3d 5577 0c3e
000001b0: f17e 933d 8348 7ebc a9e4 253d 14f9 333b
000001c0: 16a3 373d 4304 8d3a 2331 82bd 865f 8ebd
000001d0: f705 78bd 0bc6 743d 4f17 313d 6f5d 2fbd
000001e0: 99d0 b4ba e5a6 933c 9ab2 b23b 56fe 493c
000001f0: ebb5 95bd 75ab f43c f051 863d 1e70 b23d
00000200: 5c97 36bd c32e 713d cf29 6abd ea6f 96bd
00000210: abad 16bb 094c c13b c3ca b33d aa2e 76bd
00000220: 130e f3bc e1f9 3f3d 31bb 4f3d abbf 073d
00000230: e014 63bc e69c 57bd c0f8 b7bc 6d12 c1bc
00000240: 819e 7c3c d644 833c e4c3 f83c 5bd8 5f3c
00000250: 9c89 a83c 361a 983d 1af3 fdbd 20c5 e6bc
00000260: 2f80 993c b902 eabc 17f0 a9bd c13d 6cbd
00000270: cf48 78bc 000a 8a3d 2f08 7e3b ba93 92bc
00000280: abbb 963c 9ea9 4f3d be44 6a3d 6d2b 1e3c
00000290: 166e b9bb bae8 193d 2c85 0f3d f8d8 c33c
000002a0: e279 f73c 8dfe 933d fb2e f63d c11e 0b3e
000002b0: 0355 a83d 6cc3 2a3d 53ad 9e3d 41d3 f43d
000002c0: 3141 773d 83f7 5f3c f7c5 0d3d 9b00 e73c
000002d0: 5535 e53d 1e0e d23c df69 cfbc cd88 e83c
000002e0: 51a7 b13c 13db 6b3d 2b90 e23c a993 0c3a
000002f0: bb05 46bc a9bd 90bc b8cc 803d 4a43 4cbc
00000300: b390 143d 2c3c 133d 5a25 eabc b40a a9bc
00000310: c6e1 e43c 7984 223d f70c 3dbc cf0a 173b
00000320: 080f 86bd 7d19 62bd 32c7 f7bc 4b1c a0bd
00000330: 5539 8ebd 6b33 8abc 394d 013c 5b76 4b3d
00000340: adc9 723d 7cda 20bd 0467 97bd 30e6 383b
00000350: 11f4 6b3b 38a4 07bd 1656 7d3c 1dd3 82bd
00000360: 7c2e 1e3d a93e 2c3b 4af6 95bb 3f13 bebd
00000370: 3749 473b e231 c83c 085f c23c eb55 06bd
00000380: 4b40 99bd 5c55 bcbd 3c8e 3cbd 0618 0abe
00000390: 560f 09be 7d84 16be fa20 c2bd 7744 62bd
000003a0: ade4 26bd aee2 cebd 89d7 2bbd a0c1 dbbc
000003b0: 0f3e cc3c cde2 143d 54e3 39bc a25f f33b
000003c0: 65cb 7abd 1837 9cbd dc73 2d3c 70cb 09bd
000003d0: 5467 a6bd f083 10bd 50d5 4e3c 8be2 a9bc
000003e0: 10f0 19bd 568e 80bd 04e5 d0bc 8e73 e6bc
000003f0: 123e 99bd 438b 06bd 3990 e3bd 04e2 ce3c

fc1.bias f4 [120]
0.019909471 0.08925063 0.07605135 -0.06089528 0.022953963 -0.08591408 0.16901222 0.060278933
-0.04667108 -0.035827953 -0.05446573 -0.03264291 0.045149878 0.027721295 0.042306934 -0.0016377822
0.13877921 0.09413902 0.08001313 0.002623056 0.007084302 -0.058018688 0.14609714 0.027776944
-0.018581374 -0.042024504 -0.033177998 -0.02031598 0.061154313 -0.06386851 -0.052387103 -0.024364157
0.11391618 0.052158177 0.018145854 -0.01721262 -0.038684525 -0.06901942 -0.0068523213 0.067554794
-0.0055071 0.054513246 0.095792644 0.009274042 0.020218952 -0.042407777 0.11395647 -0.0010540602
0.07504901 0.056179143 0.09510494 0.014543187 0.08563291 -0.032135267 -0.022885492 0.09057991
0.035969794 0.026208604 -0.036837332 0.027710628 -0.045640677 0.08730962 -0.035239182 0.08475048
-0.16140053 -0.0038954 0.09929362 0.11238251 0.06331979 0.010987672 -0.08625243 0.056866284
0.04574011 -0.0021702852 -0.06429559 0.14998172 -0.19153848 -0.031878028 0.009651157 -0.0021385264
0.088503376 0.00037373035 0.043632664 -0.10295731 0.12940718 0.06851318 0.04541756 0.02438139
0.039207153 0.0025987003 0.017323805 -0.033882156 -0.000107447246 0.057425078 0.040865444 0.011539377
0.11068898 0.031923223 -0.025441287 0.16784725 0.053911444 0.054113604 0.0063646077 0.030768402
0.0073692845 -0.065860055 -0.015863903 -0.040092796 0.019024823 -0.0034863413 0.0691638 -0.13993192
-0.016010543 0.14652765 0.1664501 0.08424283 0.11845467 0.0522836 0.10281037 -0.117395684
00000000: 3019 a33c 09c9 b63d cfc0 9b3d 546d 79bd
00000010: f309 bc3c b9f3 afbd 8a11 2d3e 0be7 763d
00000020: 2d2a 3fbd 55c0 12bd 7517 5fbd 92b4 05bd
00000030: 14ef 383d c517 e33c 094a 2d3d daaa d6ba
00000040: 231c 0e3e f5cb c03d eddd a33d 94e7 2b3b
00000050: 6f23 e83b 01a5 6dbd 7d9a 153e 798c e33c
00000060: f737 98bc e321 2cbd a7e5 07bd b36d a6bc
00000070: f27c 7a3d 7ecd 82bd dc93 56bd 5797 c7bc
00000080: e34c e93d d0a3 553d 9da6 943c 7b01 8dbc
00000090: aa73 1ebd 0e5a 8dbd 7089 e0bb 2b5a 8a3d
000000a0: e774 b4bb 4849 5f3d ef2e c43d 27f2 173c
000000b0: 37a2 a53c c7b3 2dbd 0262 e93d 6428 8aba
000000c0: 4cb3 993d 1a1c 663d 61c6 c23d 8c46 6e3c
000000d0: 4f60 af3d 45a0 03bd 5b7a bbbc f681 b93d
000000e0: 1055 133d 6db3 d63c bee2 16bd 6601 e33c
000000f0: b8f1 3abd 63cf b23d f656 10bd a991 ad3d
00000100: 2e46 25be f849 7fbb 745a cb3d cd28 e63d
00000110: cead 813d a305 343c 1da5 b0bd 9fec 683d
00000120: fb59 3b3d 583b 0ebb 68ad 83bd cf94 193e
00000130: aa22 44be 8992 02bd e31f 1e3c 8526 0cbb
00000140: 4241 b53d 3df1 c339 2ab8 323d 48db d2bd
00000150: 5183 043e a350 8c3d c307 3a3d 7bbb c73c
00000160: ae97 203d f54e 2a3b a7ea 8d3c 04c8 0abd
00000170: 4d55 e1b8 8f36 6b3d 8662 273d a80f 3d3c
00000180: e7b0 e23d edc1 023d 3f6a d0bc 26e0 2b3e
00000190: 3fd2 5c3d 3aa6 5d3d 338e d03b 040e fc3c
000001a0: 0a7a f13b a3e1 86bd 04f5 81bc 5838 24bd
000001b0: f2d9 9b3c 1a7b 64bb c0a5 8d3d 504a 0fbe
000001c0: 8b28 83bc 580b 163e e571 2a3e 8187 ac3d
000001d0: 5d98 f23d 5427 563d 3e8e d23d 266d f0bd

fc2.weight f4 [84, 120]
-0.016663292 0.005337925 -0.089514226 0.0013337262 0.07516546 -0.023512764 -0.028373951 -0.09868106
0.010341207 0.014190928 0.055992268 0.08218494 -0.100634836 -0.015963161 -0.07424064 -0.020625576
-0.082474805 0.0065270737 -0.0072127394 0.08694773 0.069588974 -0.030059861 -0.14785786 -0.05970004
0.05492048 -0.043486476 0.12249205 -0.01425299 -0.044331957 0.018227255 -0.018268894 0.04362684
0.016189529 0.08405994 0.04864962 0.08390984 0.041036453 -0.053298943 -0.07132352 0.0004193685
0.031202134 0.017235195 -0.0098020565 -0.070809774 -0.041408356 0.080826685 -0.027654814 -0.073870815
0.08701092 0.02125998 0.05066204 0.006106912 -0.080385454 0.030589264 -0.05225462 0.10432262
-0.10754819 0.044677738 -0.085967354 0.042488355 -0.00025410057 -0.050758727 0.023285892 0.099746294
-0.051906947 0.08907578 -0.078549705 -0.09852715 0.04818281 -0.024236819 -0.0083049685 0.017553765
0.005020547 -0.010744911 -0.0071571325 -0.029625703 0.08169267 0.040895447 -0.08563377 -0.06193735
0.06622833 0.06503942 0.06386943 -0.0151904635 -0.06615053 0.07586024 -0.02937785 0.0029563415
-0.016624259 0.07361591 -0.054622192 0.009215733 0.12126514 0.10991051 -0.031585667 -0.030448562
-0.08479663 -0.023313703 0.047877662 0.07129646 0.031999245 -0.091807716 0.06749971 -0.039854504
0.080394804 0.024061767 -0.061026692 -0.057444848 0.06921548 -0.045665745 -0.068180606 -0.07358599
0.035451904 -0.06498252 0.00049477257 -0.057396483 -0.056265198 -0.04857852 0.04198697 -0.051071946
-0.029019915 -0.09558613 -0.104439154 -0.029565599 -0.110861234 -0.12456075 0.023174679 0.13815139
0.07224371 -0.074197635 -0.10810265 0.0012435969 0.052445225 -0.07140291 0.00905731 0.032778088
0.065375 -0.08929896 -0.027413007 -0.051538337 -0.11066986 -0.06732978 0.02380316 0.08831707
-0.038707286 -0.03141457 -0.0058696596 -0.028457033 0.050690863 0.034196932 -0.030288247 0.04735324
0.0076282467 0.13906714 -0.10313074 -0.053008493 -0.0023570014 -0.03294645 0.052791614 -0.018666936
-0.03578479 0.09376076 0.018339887 -0.04432904 -0.008720502 -0.043970898 -0.05147748 0.024094345
-0.12829976 0.026781082 0.057711527 -0.078815676 0.051002923 -0.15301955 0.057007305 0.0650072
-0.12897749 -0.07533725 0.08055469 0.10166661 -0.029297585 0.10542069 -0.08492369 0.04774896
-0.16449313 -0.047364943 0.038123827 -0.008425465 -0.049041428 0.078227825 -0.010047397 -0.03334696
0.022588355 -0.032743905 0.10519175 0.09256496 -0.1652597 -0.029525155 0.0051198127 -0.016780278
0.023230243 -0.083180726 0.11647796 -0.09805229 -0.047592837 0.11268935 0.010582138 -0.065346316
-0.11911572 -0.08637748 0.039878186 0.06670835 -0.1019241 0.010830101 0.07686975 0.08711014
0.045676406 0.038625285 0.0026195438 -0.094772555 -0.029087594 0.050532762 -0.032653295 0.0026364308
0.025814243 -0.078198336 -0.09359319 0.03525523 -0.05604137 0.017911436 5.9542737e-05 -0.047409743
-0.034085758 0.12617017 0.15290603 0.15415172 0.06253821 0.03216467 0.1643082 -0.08427608
-0.016227543 0.01417929 -0.0140806595 -0.0064250547 -0.07904655 -0.015586346 0.008025889 7.742841e-05
0.010678209 -0.06476071 -0.044320587 0.0357767 -0.086972326 0.067856684 0.017211854 -0.076817416
00000000: 7581 88bc c3e9 ae3b 3c53 b7bd 6dd0 ae3a
00000010: 59f0 993d d79d c0bc 7d70 e8bc 4c19 cabd
00000020: 2a6e 293c 1181 683c 2658 653d 9450 a83d
00000030: a319 cebd 2dc5 82bc 7a0b 98bd f8f6 a8bc
00000040: 8de8 a8bd 10e1 d53b d858 ecbb a711 b23d
00000050: aa84 8e3d 1940 f6bc 0d68 17be 0788 74bd
00000060: 4cf4 603d e01e 32bd 1ddd fa3d 5f85 69bc
00000070: 6d95 35bd 5351 953c a6a8 95bc 0fb2 323d
00000080: e79f 843c 9e27 ac3d d344 473d ecd8 ab3d
00000090: d715 283d fe4f 5abd 1112 92bd b0de db39
000000a0: 9e9b ff3c d330 8d3c ce98 20bc b704 91bd
000000b0: cf9b 29bd 7688 a53d 598c e2bc 9549 97bd
000000c0: c832 b23d 6929 ae3c 0083 4f3d 7e1c c83b
000000d0: 21a1 a4bd 5696 fa3c f108 56bd 19a7 d53d
000000e0: 3a42 dcbd 0100 373d a70f b0bd 4508 2e3d
000000f0: cd38 85b9 62e8 4fbd 0ec2 be3c c947 cc3d
00000100: 619c 54bd 5d6d b63d abde a0bd 9ac8 c9bd
00000110: 575b 453d 4b8c c6bc 9011 08bc eacc 8f3c
00000120: 6783 a43b 6c0b 30bc 6186 eabb 9ab1 f2bc
00000130: 7d4e a73d fc81 273d c260 afbd 05b2 7dbd
00000140: b8a2 873d 6333 853d facd 823d 6ce1 78bc
00000150: ee79 87bd 9d5c 9b3d d1a9 f0bc 2ebf 413b
00000160: 992f 88bc f0c3 963d 85bb 5fbd 96fd 163c
00000170: dc59 f83d c318 e13d f95f 01bd 436f f9bc
00000180: dba9 adbd 61fc bebc 5e1b 443d e103 923d
00000190: a411 033d af05 bcbd 4a3d 8a3d 7a3e 23bd
000001a0: 08a6 a43d 2f1d c53c 20f7 79bd 4a4b 6bbd
000001b0: d8c0 8d3d 010c 3bbd 46a2 8bbd 40b4 96bd
000001c0: 0436 113d 8e15 85bd a0b3 013a 9318 6bbd
000001d0: 5676 66bd 45fa 46bd 87fa 2b3d d130 51bd
000001e0: 2cbb edbc a9c2 c3bd 32e4 d5bd 8e33 f2bc
000001f0: 370b e3bd b519 ffbd d3d8 bd3c 8f77 0d3e
00000200: 83f4 933d eef4 97bd ec64 ddbd 3000 a33a
00000210: ced0 563d b03b 92bd 1d65 143c 5142 063d
00000220: 54e3 853d 60e2 b6bd 3e91 e0bc dd19 53bd
00000230: e1a6 e2bd 32e4 89bd d8fe c23c 94df b43d
00000240: 888b 1ebd 90ac 00bd 4656 c0bb b91e e9bc
00000250: 39a1 4f3d 1512 0c3d 0f1f f8bc 79f5 413d
00000260: 5ff6 f93b 9e67 0e3e 3636 d3bd 6f1f 59bd
00000270: ec77 1abb dbf2 06bd 053c 583d 67eb 98bc
00000280: 1293 12bd a405 c03d 883d 963c 5e92 35bd
00000290: 70e0 0ebc d41a 34bd 0dda 52bd 8161 c53c
000002a0: 0361 03be 0064 db3c ec62 6c3d 1d6a a1bd
000002b0: 71e8 503d 28b1 1cbe 7e80 693d 7f22 853d
000002c0: ad12 04be 6b4a 9abd dbf9 a43d 9536 d03d
000002d0: 7d01 f0bc cde6 d73d 79ec adbd 6a94 433d
000002e0: e370 28be be01 42bd bb27 1c3d f60a 0abc
000002f0: aadf 48bd e935 a03d d69d 24bc d296 08bd
00000300: 370b b93c 791e 06bd c66e d73d b392 bd3d
00000310: d739 29be bdde f1bc 1ac4 a73b cb76 89bc
00000320: 5a4d be3c a85a aabd ff8b ee3d a4cf c8bd
00000330: b5f0 42bd adc9 e63d b460 2d3c 4ad4 85bd
00000340: f1f2 f3bd ade6 b0bd 4f57 233d 639e 883d
00000350: 95bd d0bd bc70 313c e36d 9d3d cd66 b23d
00000360: 2f17 3b3d 8c35 1e3d a7ac 2b3b 1d18 c2bd
00000370: 1b49 eebc 71fb 4e3d 76bf 05bd f8c7 2c3b
00000380: 6478 d33c 7326 a0bd c9ad bfbd ca67 103d
00000390: a38b 65bd 01bb 923c 87bd 7938 b830 42bd
000003a0: 829d 0bbd c132 013e 6693 1c3e f3d9 1d3e
000003b0: 0814 803d 1abf 033d 6940 283e f098 acbd
000003c0: a0ef 84bc 4150 683c 91b2 66bc 4489 d2bb
000003d0: 28e3 a1bd e05d 7fbc 057f 033c 1061 a238
000003e0: a8f3 2e3c 43a1 84bd 8189 35bd 978a 123d
000003f0: 8c1e b2bd 72f8 8a3d e0ff 8c3c 7352 9dbd

fc2.bias f4 [84]
-0.089808166 0.25508356 -0.015428778 0.06152484 0.086037435 0.16017012 0.035926294 0.03613245
0.070874356 0.22227277 -0.010133931 -0.096830815 0.03245013 0.14625098 -0.024161354 -0.03777621
-0.0466607 -0.035458963 -0.0215664 -0.08599248 0.16440484 0.020932416 -0.038485132 0.022490485
0.008672843 0.1270028 -0.08608168 -0.06308302 -0.1096585 -0.04409938 0.14407784 0.11955476
0.07864357 0.034015045 -0.049322136 0.011601622 0.032239873 0.05084095 -0.01747587 0.2548587
0.17664269 0.038225114 0.02136168 0.106751636 -0.014677331 0.08221182 0.22507046 0.26377627
-0.10619177 -0.085540965 0.03414454 0.11019548 0.029883672 0.1646229 0.063466735 0.15136349
-0.096840166 -0.07592097 -0.07526365 0.041290242 -0.106506504 0.15646271 -0.06349332 0.09137939
0.041545186 -0.071302295 0.112910494 0.057173427 0.023835966 -0.10192623 0.027734881 -0.046531122
0.43094707 -0.09445434 0.24757557 -0.08046262 0.11266523 0.020624489 -0.018151121 0.28648457
0.21931212 0.034152616 0.030664314 0.1622265
00000000: 58ed b7bd 509a 823e fcc8 7cbc 7801 7c3d
00000010: 6534 b03d a303 243e 7327 133d 9fff 133d
00000020: 9326 913d 799b 633e ca08 26bc 3c4f c6bd
00000030: 6dea 043d d1c2 153e 08ee c5bc 3abb 1abd
00000040: 4a1f 3fbd 6b3d 11bd 05ac b0bc d31c b0bd
00000050: be59 283e 757a ab3c 96a2 1dbd f73d b83c
00000060: 8a18 0e3c 060d 023e 984b b0bd ac31 81bd
00000070: a394 e0bd 8da1 34bd 2489 133e 20d9 f43d
00000080: e10f a13d 5c53 0b3d 0206 4abd bb14 3e3c
00000090: f50d 043d 9a3e 503d 8e29 8fbc d77c 823e
000000a0: d2e1 343e f091 1c3d b1fe ae3c 9aa0 da3d
000000b0: 3079 70bc ac5e a83d df78 663e af0d 873e
000000c0: 127b d9bd 1a30 afbd 25db 0b3d 2bae e13d
000000d0: 9ace f43c e892 283e d9fa 813d 08ff 1a3e
000000e0: 2354 c6bd 747c 9bbd d423 9abd f51f 293d
000000f0: 1520 dabd c337 203e c908 82bd 1e25 bb3d
00000100: 492b 2a3d f006 92bd 9e3d e73d af2e 6a3d
00000110: a543 c33c b3be d0bd 4334 e33c 6b97 3ebd
00000120: 18a5 dc3e 4771 c1bd 7384 7d3e 96c9 a4bd
00000130: 07bd e63d b0f4 a83c a9b1 94bc 1bae 923e
00000140: 5b93 603e 9de3 0b3d ba33 fb3c b41e 263e

fc3.weight f4 [10, 84]
0.023515921 -0.12593995 -0.09445731 -0.09056985 0.09711613 -0.07122774 0.14978965 -0.02924839
0.08350081 0.09127104 -0.09378969 0.25963464 -0.083584905 0.31723976 0.032307122 0.03014933
-0.03994957 0.05816971 0.027803395 0.080393516 0.22801815 0.12918064 -0.08044058 0.095468216
0.027341753 -0.1810774 0.06810305 0.1515902 0.083907105 0.06000406 -0.045366775 0.012933988
0.06752596 -0.0888543 -0.044666033 -0.07850401 0.051473916 0.1463521 -0.008225966 -0.067263685
0.105407864 0.082926646 0.31579903 -0.0069283014 0.023990713 0.1048102 -0.024555696 0.3329669
-0.06671305 0.24496783 0.019387653 -0.30444258 -0.14213756 -0.1307378 0.010066088 0.17098439
0.1376926 -0.039248824 -0.07159172 0.1185759 0.13253672 -0.059698123 -0.05011889 0.2721834
0.03698874 -0.051170222 -0.10784815 -0.006477379 -0.08034776 0.008373373 0.0075540245 0.27794418
-0.3417149 0.012116823 0.23999643 -0.0477979 -0.09495049 -0.06118585 -0.11434292 -0.3139221
-0.012383883 -0.2842598 0.041183565 0.13493897 -0.0018694551 -0.11300476 0.0018934048 0.16957818
-0.123970665 -0.021975351 -0.16497813 -0.08350471 -0.020088015 -0.12550622 -0.046877626 -0.17605558
-0.15121163 -0.09400264 0.033901118 -0.11640978 0.17099866 0.0739171 -0.076569505 0.021679774
0.1948272 -0.116116114 0.10035631 0.08136088 0.03840286 -0.16133073 -0.0008250876 -0.02950814
0.035921868 0.005728343 -0.040107667 -0.076602586 0.0035986921 -0.08627378 0.09005507 0.107941225
-0.08504161 -0.14088085 -0.079892606 -0.09452635 0.33617008 0.06194593 0.43921444 -0.16820797
-0.13871753 -0.033929326 0.12503757 0.25537324 0.1368828 -0.030874668 0.15305461 -0.37253284
-0.054187365 0.17923003 -0.03174945 -0.32303593 0.12619203 0.29759344 -0.05945724 -0.055540133
-0.1790518 -0.2451456 -0.0076192096 -0.12247538 -0.036298823 -0.052619737 -0.14656623 -0.008846131
0.059550505 0.081054926 -0.1491853 -0.13742252 -0.19523016 0.27082568 -0.10644704 0.037052233
0.035276294 0.12490473 -0.04548783 -0.21305479 -0.16365027 0.054267675 -0.061082546 -0.04312537
0.12298334 0.089585066 0.046775863 -0.086307436 -0.1349052 -0.037994858 0.31781653 -0.024918057
-0.02843957 0.13228315 -0.10894452 -0.00090562244 0.14462352 0.021460233 -0.067081675 0.16013557
0.19434397 0.09589004 0.114472665 0.15107061 -0.0657659 0.066289306 0.009777062 -0.03694323
0.00013760365 -0.10417757 0.0019117945 0.16839802 -0.15903871 -0.21226865 -0.17903204 0.10222052
-0.02728851 0.050516322 -0.090558045 0.106950566 -0.11302968 0.30786067 0.07430554 0.15501766
-0.113990195 -0.047774974 -0.16864975 0.20677117 0.03745024 0.16287678 -0.027204411 -0.1165861
0.051034316 0.004859443 -0.21555306 0.15834723 0.03532747 -0.03238411 0.16829388 0.18381703
0.06827941 0.085502364 -0.046616975 -0.011738419 0.14577372 -0.017499346 -0.046926897 0.06282178
-0.08674604 0.080154546 0.07021166 0.011203998 0.06365286 -0.030001603 -0.035546612 -0.011548859
0.22250086 0.07894097 0.24999215 0.09307299 0.044472482 -0.044665534 -0.08427203 0.10778913
0.0041802814 -0.13048348 -0.036392268 0.020829095 0.056646377 -0.20079222 0.04600907 -0.034724828
00000000: 76a4 c03c 67f6 00be d672 c1bd af7c b9bd
00000010: d2e4 c63d d9df 91bd 7562 193e 529a efbc
00000020: 7902 ab3d 50ec ba3d cf14 c0bd d5ee 843e
00000030: 902e abbd 406d a23e 7954 043d bafb f63c
00000040: 29a2 23bd 5d43 6e3d f2c3 e33c 5ba5 a43d
00000050: 977d 693e ee47 043e 08be a4bd d784 c33d
00000060: d0fb df3c 5b6c 39be 9d79 8b3d 763a 1b3e
00000070: 7dd7 ab3d d1c6 753d 83d2 39bd 14e9 533c
00000080: 0d4b 8a3d 3ef9 b5bd bbf3 36bd b6c6 a0bd
00000090: 50d6 523d 53dd 153e 34c6 06bc 8bc1 89bd
000000a0: 14e0 d73d 72d5 a93d 69b0 a13e ce06 e3bb
000000b0: 2c88 c43c bba6 d63d 0729 c9bc a37a aa3e
000000c0: daa0 88bd d9d8 7a3e dbd2 9e3c e6df 9bbe
000000d0: 828c 11be 21e0 05be 3cec 243c 8816 2f3e
000000e0: 4aff 0c3e 60c3 20bd ae9e 92bd ecd7 f23d
000000f0: b5b7 073e 0586 74bd 7749 4dbd 9f5b 8b3e
00000100: 8181 173d de97 51bd 7edf dcbd 3140 d4bb
00000110: 5e8d a4bd 7930 093c c087 f73b b34e 8e3e
00000120: 41f5 aebe a485 463c a0c1 753e bbc7 43bd
00000130: 6775 c2bd 049e 7abd 9f2c eabd 66ba a0be
00000140: c5e5 4abc 808a 91be 19b0 283d 712d 0a3e
00000150: 8108 f5ba 0a6f e7bd 1f2c f83a e7a5 2d3e
00000160: 55e4 fdbd a705 b4bc 07f0 28be 8404 abbd
00000170: 9f8f a4bc b484 00be c102 40bd ea47 34be
00000180: 39d7 1abe 7584 c0bd e6db 0a3d 4068 eebd
00000190: 461a 2f3e d961 973d 79d0 9cbd c899 b13c
000001a0: c880 473e 49ce edbd 9c87 cd3d 88a0 a63d
000001b0: 514c 1d3d e233 25be b14a 58ba 0ebb f1bc
000001c0: cf22 133d d3b4 bb3b f047 24bd d1e1 9cbd
000001d0: 09d8 6b3b 4fb0 b0bd cb6e b83d 4a10 dd3d
000001e0: 4c2a aebd 1243 10be bc9e a3bd 0897 c1bd
000001f0: 7c1e ac3e 04bb 7d3d b7e0 e03e b63e 2cbe
00000200: f80b 0ebe 7af9 0abd d909 003e 48c0 823e
00000210: 012b 0c3e dfec fcbc 59ba 1c3e a0bc bebe
00000220: 92f3 5dbd 1488 373e b60b 02bd f764 a5be
00000230: 7c38 013e 2b5e 983e 6f89 73bd 0d7e 63bd
00000240: 5b59 37be 7307 7bbe 90aa f9bb 5fd4 fabd
00000250: 13ae 14bd cb87 57bd 7515 16be 5def 10bc
00000260: 3beb 733d 2000 a63d 08c4 18be 7db8 0cbe
00000270: 6aea 47be aaa9 8a3e e800 dabd 15c4 173d
00000280: e07d 103d 0dce ff3d 7251 3abd 092b 5abe
00000290: f093 27be c847 5e3d b131 7abd 3aa4 30bd
000002a0: b0de fb3d 6078 b73d 0c98 3f3d f4c1 b0bd
000002b0: 9724 0abe 7fa0 1bbd d9b8 a23e f420 ccbc
000002c0: 1afa e8bc 3c75 073e 4e1e dfbd 4b67 6dba
000002d0: 3018 143e 5fcd af3c 1e62 89bd 94fa 233e
000002e0: 1b02 473e ff61 c43d a570 ea3d 41b2 1a3e
000002f0: 46b0 86bd b0c2 873d f82f 203c c951 17bd
00000300: b349 1039 0d5b d5bd 2e95 fa3a 8870 2c3e
00000310: 0bdb 22be f45c 59be 2d54 37be fe58 d13d
00000320: 278c dfbc 34ea 4e3d 7f76 b9bd e608 db3d
00000330: 1b7c e7bd ea9f 9d3e 812d 983d f3bc 1e3e
00000340: b173 e9bd b1af 43bd 85b2 2cbe d2bb 533e
00000350: 6c65 193d 2cc9 263e c9db debc b1c4 eebd
00000360: 5c09 513d f63b 9f3b f1b9 5cbe c725 223e
00000370: 8ab3 103d 33a5 04bd 3b55 2c3e 883a 3c3e
00000380: 13d6 8b3d dd1b af3d 71f1 3ebd 7f52 40bc
00000390: b545 153e ca5a 8fbc 6b36 40bd b5a8 803d
000003a0: e8a7 b1bd 1128 a43d 21cb 8f3d f990 373c
000003b0: 6e5c 823d ecc5 f5bc 5399 11bd 6d37 3dbc
000003c0: 44d7 633e ceab a13d f1fd 7f3e 0d9d be3d
000003d0: c728 363d 35f3 36bd d096 acbd 8cc0 dc3d
000003e0: befa 883b 769d 05be 0f10 15bd c7a1 aa3c
000003f0: 0806 683d 7a9c 4dbe 0274 3c3d 9f3b 0ebd

fc3.bias f4 [10]
-0.14392605 -0.32152337 0.09125716 0.1673672 0.514196 -0.29200163 0.20441118 -0.27276143
0.3443799 -0.2775056
00000000: 5a61 13be b69e a4be 09e5 ba3d 4f62 2b3e
00000010: 59a2 033f 3d81 95be 2a51 513e 63a7 8bbe
00000020: 9052 b03e 3715 8ebe
